checkpoint.pth (torch_old, 46010 bytes, 9 tensors)

feature.0.weight f4 [64, 37]
00000000: 6216 203d 17a9 94bc e623 23be 2eab 50bd
00000010: 9050 b93d 3531 533d 4ce8 203e 8b15 3cbe
00000020: 6e91 99be b288 fa3c f951 6abe b629 863c
00000030: c58d 88bd f0e0 14be 341a 84bd 264e 543e
00000040: 51d4 c33d c2e5 87be 5eea a5be 497e 363d
00000050: 3704 5e3e 9688 a33c 5125 bcbe 7514 2e3e
00000060: 2057 4fbe 4aa1 e03d 5b62 d13d d0ac 73be
00000070: 527d 72be 8457 d93d e7cc 39be f79e e43d
00000080: cb51 e33c c065 1c3a 1606 e1bd 95a8 1abd
00000090: c0fc 80bd 0ebe 58bd e16c 2f3e 4dc4 983d
000000a0: a996 d53d 257c b43d dc80 1fbe 1ac5 75ba
000000b0: e477 dfbd d531 22be a8e7 89be 54b7 c33a
000000c0: 6b8c e2bc c0bc a8bc 99db 03bb 8bf4 943e
000000d0: dffb 653e 80a5 00be 46fa 453d d986 81be
000000e0: ca68 ddbe 66e3 33be e80e b6bc 4bb6 0dbd
000000f0: 9822 85bd 9d9f 933e 6c96 4ebe 435a 223e
00000100: 8544 c33d be30 4e3d ec9f 753e eef6 533d
00000110: 0e29 283e 3401 45bd 0072 e8bd 53c8 14bc
00000120: 2780 b93d e999 863c 470d 3e3d dd75 0d3e
00000130: 7b57 fd3d 40bb dbbc c5af 19be 2464 e7be
00000140: cfd2 ccbc 8259 a13e 5b34 aabc 4d0a 073d
00000150: 558f 383d 55c5 e9bd 4976 95bd a7f7 cc3d
00000160: d48a 8f3e 5d16 d2be 0f89 3e3e a0b7 a23d
00000170: be62 7e3e ec95 3ebe 8da8 c5bd 3253 2e3b
00000180: 3bcc 77bd c679 1a3d 70d2 5f3e 4d65 14bf
00000190: f6ff 713e f301 743e 6c96 94bd cd58 e2be
000001a0: 26e7 b0be b8ff 573d be16 b9bd 8ed5 943b
000001b0: 61f7 153e d7e4 6bbc 86cd b9bc a7c0 163e
000001c0: f5c1 2f3d 9685 9e3d 9ac2 c93c cb8c c8bd
000001d0: 5269 c7bd 77f8 c93d b8de 013d 564f 243e
000001e0: c529 7d3e 1c8f adbd 6093 81bd 0051 b43d
000001f0: e625 fd3d 5d8f 2abd 040c 7e3c ade8 9dbc
00000200: 999f 6dbd ceb9 44be f96d e3bd fcb2 7f3e
00000210: d345 46be 6fb8 14be 8c83 3bbe f130 6cbf
00000220: 54e8 293a e438 193d 7fc7 3fbb 859b 943e
00000230: 2976 9f3e b840 233e c027 2a3e abb3 bdbd
00000240: a8ac 6fbe fa90 efbe acd3 79bc 8b02 e33a
00000250: 8ae4 0bbe 37ea b2bd 528e b4bc 4893 09be
00000260: 2ab6 e6bc ab88 c03d 3d2c 8bbc 7d3b 57bd
00000270: c41b 0bbc ad07 14bf 2cd5 1f3d 8f64 1bbd
00000280: 4336 99bd b757 28bd 7791 b1bd 0958 d0bd
00000290: b13b 08be 950e 1b3d 7334 d53d cc6b 363d
000002a0: 1343 a3bc e295 ee3c 0d33 983a 56ad f13b
000002b0: 4ee3 9c3d f2bd 3a3e b661 b33c 3bfb 47bd
000002c0: 3f10 a5be e496 83bf 73d2 aabc e40b f73c
000002d0: fea6 0c3c 74c4 393e f94c 813e 3eb9 513d
000002e0: 18b8 a53c 598b da3d 1f15 a8bd a59b c63c
000002f0: 7cc4 44bd db27 ff3b 4c68 a53e b7c4 a2bd
00000300: 4bbe 3fbe c684 e5be 26f5 94bf faa2 63bd
00000310: 1bc4 a6bd 2a5b aa3d dbec 79bd ffd4 b03d
00000320: 84d6 703d c76d 14bc 5c75 e43c 682e c8bc
00000330: d583 d33d e5f3 cf3d dee9 ba3d 3b94 053e
00000340: 8e81 0d3e 51e4 e43d 6fb6 803d 588a c5bd
00000350: 5d68 943d bb77 3f3e 2224 3c3e 67ce b13d
00000360: ab1c 85bd 83b4 63bd 517d d43d d885 da3d
00000370: 6032 c53c cc1e 6f3d 119b 873d 7507 1c3d
00000380: b36c 15bd a5f9 533d ff0d f43b 9861 6abd
00000390: 8d9c cdbb 8f34 703c 728b 793d babd df3d
000003a0: 20d4 963d adba 023e a001 e93d 90f8 fa3d
000003b0: e0c3 b23d cdcc 89bd b4ee 393d 514d 243d
000003c0: 7572 553d 530d e83d dd7a 3a3c ae7e 8b3c
000003d0: bf04 9a3d 42ce ce3d dadd 1a3e 2688 86bd
000003e0: 8958 f8bc 47ba 76bc babb 063d 3648 bb3d
000003f0: 9bf3 a53e 2ac4 4ebe c548 e3be 4156 1cbf
0.039083846 -0.018147035 -0.15931663 -0.0509445 0.09048569 0.0515606 0.15713614 -0.18367593
-0.29993767 0.03058276 -0.22882833 0.016377311 -0.066676654 -0.14538932 -0.0645031 0.20732936
0.095619805 -0.2654248 -0.3240537 0.04455403 0.21681295 0.01996259 -0.3674722 0.16999991
-0.2024808 0.109682634 0.10223838 -0.23796391 -0.23680618 0.106123954 -0.1814457 0.11163133
0.027748963 0.00059660897 -0.10987489 -0.03775843 -0.06298208 -0.052915625 0.17131378 0.074593164
0.10429127 0.08812741 -0.155765 -0.0009375379 -0.10911539 -0.15839322 -0.26934552 0.0014931955
-0.027654847 -0.020597816 -0.0020119904 0.2909282 0.22459362 -0.12563133 0.048334382 -0.25298193
-0.4324401 -0.17567214 -0.022223905 -0.034597676 -0.06500739 0.28832713 -0.20174569 0.15854745
0.095345534 0.050339453 0.23986787 0.051749162 0.16421911 -0.04809685 -0.11349869 -0.009080964
0.09057646 0.016430812 0.04639938 0.13814493 0.12370201 -0.026822686 -0.15008457 -0.4519359
-0.025002865 0.31513602 -0.020776918 0.032968808 0.045058567 -0.11414591 -0.07297952 0.100081734
0.28035605 -0.41032687 0.18606971 0.0794518 0.24842355 -0.18611878 -0.09651289 0.0026599881
-0.060497504 0.03771379 0.2185762 -0.5796707 0.23632798 0.23828869 -0.07255253 -0.44208375
-0.34551352 0.052734107 -0.09037541 0.0045420593 0.14645149 -0.014397821 -0.022681009 0.14721929
0.04290958 0.07740323 0.024628926 -0.09792479 -0.09736885 0.09861844 0.03170654 0.1604589
0.24722965 -0.084745616 -0.06326938 0.08804512 0.12360744 -0.041640628 0.015505794 -0.019275988
-0.058013532 -0.19211504 -0.1110496 0.24970621 -0.19362573 -0.14523481 -0.183119 -0.9226218
0.0006481458 0.03740777 -0.0029263196 0.29024902 0.31144837 0.15942657 0.16616726 -0.092627846
-0.23405707 -0.46790296 -0.01524822 0.0017319483 -0.136614 -0.08736079 -0.02204052 -0.1343509
-0.028163034 0.09401067 -0.016988868 -0.052546967 -0.008490507 -0.5782421 0.039021656 -0.037937697
-0.07481053 -0.041099276 -0.08670323 -0.101730414 -0.1330402 0.037855703 0.104103945 0.044536397
-0.019929444 0.029124204 0.0011611894 0.0073753996 0.076605424 0.18236521 0.021897178 -0.048823576
-0.32238957 -1.0280423 -0.020852303 0.030157037 0.008584736 0.18141347 0.25254038 0.05120205
0.020229384 0.1067111 -0.082071535 0.024244139 -0.048038945 0.0077867336 0.32306135 -0.07947677
-0.18724935 -0.4482786 -1.1637313 -0.05557535 -0.08142873 0.083181694 -0.0610169 0.08634376
0.058798328 -0.009059376 0.027887993 -0.02443619 0.10327879 0.10153941 0.09126638 0.13044827
0.13818952 0.111763604 0.062847964 -0.096455276 0.07246468 0.18698017 0.18373159 0.08681946
-0.064996086 -0.05559207 0.10375465 0.1067006 0.024071872 0.05837898 0.066213734 0.03809305
-0.036480617 0.05175175 0.0074479575 -0.05722198 -0.006274766 0.014660968 0.060924 0.10924859
0.073646784 0.12766524 0.11377263 0.12254441 0.087287664 -0.06728516 0.04539366 0.040112797
0.052111108 0.113306664 0.011381832 0.017028179 0.075204365 0.10097934 0.15123692 -0.06568937
-0.030315654 -0.01505906 0.032893874 0.091446325 0.3241242 -0.20192018 -0.44391456 -0.61069113

feature.0.bias f4 [64]
00000000: d642 b93d c4e6 7fbd c9a5 10be 1a31 f1bc
00000010: 17b8 2e3e c171 723c 309b 92bc 6823 cc3c
00000020: 904e 743c afcf 5ebe 4d0c a43d 4006 193e
00000030: a3c5 063e 47bc 0d3e 48b3 1abd 370d a7bd
00000040: f238 943b 85e7 0bbd da2f 063c a797 32be
00000050: 8c96 d5bd b5de 023b 2cdc 053d b07b b1bd
00000060: 1c36 f5bd dee5 623e c97c 83bd 477e 36be
00000070: fa4e 333e 8cf8 063e 869d c3bb 9470 85bd
00000080: 002f fb3d 549f d6bc 7932 05be c0f9 fb3d
00000090: 2a5e d9bd c94c d63b 903b 79bd e3af e0bd
000000a0: 6c6f 0fbe 8c49 e5bb 9e07 e8bd e354 063e
000000b0: 109c 133c 6974 dfbd 843f b43c 2a87 8abe
000000c0: 28ce 0dbd c173 193d 7062 32be 8ab0 be3d
000000d0: 1372 61bd 4b6c d9bd c2f0 69be 8a9b 0f3d
000000e0: ad25 e23d b7c6 59bc 1b49 19be e760 01be
000000f0: 3825 56bc 028b 7d3c 116f 153d f705 a03b
0.09045951 -0.062475935 -0.14125742 -0.029442359 0.17062412 0.014797629 -0.017896265 0.024919227
0.014911309 -0.21758913 0.08010159 0.1494379 0.1316133 0.13841353 -0.037768632 -0.081568174
0.00452339 -0.03415634 0.00819012 -0.17440663 -0.10429105 0.001996917 0.032680675 -0.0866617
-0.11973211 0.22158 -0.06420285 -0.17821608 0.17510596 0.1318075 -0.005969706 -0.06515613
0.12264824 -0.02619902 -0.13007535 0.123034954 -0.106136635 0.006539915 -0.06084782 -0.10971048
-0.14007348 -0.006997293 -0.11329578 0.13118319 0.009009376 -0.10910875 0.022002943 -0.27056247
-0.034620434 0.037463907 -0.17420363 0.09311016 -0.05504043 -0.10616358 -0.22845748 0.035060443
0.11042342 -0.013292006 -0.14969294 -0.12634622 -0.013070397 0.015475037 0.036482874 0.0048835236

advantage.0.weight f4 [64, 64]
00000000: 022c 8a3b 2a2f 353d f1f9 99bd ca80 28bc
00000010: cb40 b13e 05c8 a7bc 7516 cfbe 3061 913c
00000020: 841a 86be 9d5b 863e 9708 41bd 5442 7b3d
00000030: 9b97 fbbd 80ec 713e 7d54 23be ba17 3dbf
00000040: e1b1 883c a383 25be 1c63 30bf 16bd c0bd
00000050: 9bb1 5ebe 0878 10be a0b5 36be be81 53be
00000060: 64c0 18be 2f09 9dbe cac5 eb3e 973f a2be
00000070: 9d39 9dbe e242 4fbe a397 a63d 8ce2 9ebe
00000080: 0745 393d d01c 7b3e a03e 27be e3c8 9fbe
00000090: 1010 9abe 2163 3e3e 7413 debd 301a 1dbf
000000a0: a97f 603e 097c cfbd daef be3e 0578 1dbe
000000b0: ae98 26be 87ff 8cbe 6981 4fbf ad5c 42bd
000000c0: 2f3d a6be 300b 8cbb 31d7 5ebe 3f40 24bf
000000d0: c2ca 90be 13f9 a2bd d53c bfbe a59e d8bd
000000e0: 65c2 78be 3739 07bf 98c8 33be 5e72 23bf
000000f0: 086b a0bd aa0c 193e 15e2 cbbe 11bf 2b3d
00000100: ce80 8c3e 5791 65bd a025 d1be e04c a1bd
00000110: 9fed e83c a01c 183e fbcc 6cbe 6a15 d9bd
00000120: 0da5 13bd 8324 adbd 557a d3bd fe78 493e
00000130: e54b 26be 57d4 fe3d 830a 64bd 8dc8 a73d
00000140: 9f76 883c 1d9c 483d 507e ca3d 9254 e8be
00000150: b791 2f3b 7238 9abd 60e2 b93d 52e9 55be
00000160: 44e4 a9bd daa7 203e 4c0f 583c 4b3e 33be
00000170: 6466 7b3d a09a 9bbd 59a8 b23c 744d c5bd
00000180: c6e3 09be 5947 45be c477 0fbe cdca e8bd
00000190: 17eb 01bc fa9e 303d 88b5 52bd d567 c1bd
000001a0: 3368 4cbd 34cc 103e 7090 bf3d 9ac5 9cbd
000001b0: 1def eebd 2e42 18bd 3799 37be 87b7 193b
000001c0: ebc9 babd 7345 0ebe b04b 13be e6b3 0a3e
000001d0: f5e0 923c eba9 6abe 5431 ec3d 098d dfbd
000001e0: b841 58be 7889 f0bd b74c 71bd 717f f83b
000001f0: 9100 95bd 3012 a2bd 5e5c 03be 6826 dcbd
00000200: 630c d4bd 7edd 69be f396 ea3d 09a6 a13c
00000210: bd5d acbd 35f1 56bd 0138 cebb a30c 49bd
00000220: bc9d 3d3f 9a68 d9bd 2c65 e6bd e980 123e
00000230: ae38 06bc a491 14bd a11d b93d 4597 733d
00000240: cd29 0fbe ab62 b3bc 819f 05be fb2b b83b
00000250: 98e2 053d 8fdc eb3d f4e7 543d 53dd c4bd
00000260: 0594 8ebd b5d6 7f3e 2ca6 d3bc 0991 073e
00000270: 1dcf 123c 6835 603d 85f4 e43e a953 d03d
00000280: d25e c63d 0ee6 163e d5d4 303e 5227 c93d
00000290: eae5 f93d dd9d aabe f3a2 aa3d 48b1 11bd
000002a0: f457 3a3e 1a5a 8bbe cb44 6b3e 519c 6a3d
000002b0: 65cb 42bc c44c 423e ff4c 78bd 5c9f bf3d
000002c0: 9da6 853b b16b 4dbe 4ecd 90be 043a bebd
000002d0: 677f ea3d 8cce 0e3f 4ca6 50be 5ed5 27be
000002e0: 8f70 4ebe 204d f33c 3e29 863d 41ba 5b3d
000002f0: eb6b 9ebc fe7f 05be 1799 6fbd 8168 ee3c
00000300: a385 783d 1038 683d cadd 293e b42d 42be
00000310: 6312 013e 66f8 6fbd 3d28 b4be 2380 f5bd
00000320: 7513 a2be d230 afbd 2de3 bcbc 4732 1fbc
00000330: 64cb c4bd db3f bf3c 3cf6 8e3d 4bdb 83be
00000340: a7a4 013e 4275 82bd e379 93be e410 4ebd
00000350: 28bf 7a3e 7d56 8f3e 3afa cbbd f804 503e
00000360: 29d1 773c 1855 99bd 038a 9ebe 7a06 07bc
00000370: 3bbc ac3d 0879 12be 3532 30be 3032 77be
00000380: fc00 77bc 00d5 ca3c 4e25 8a3e e293 7e3d
00000390: fde4 15be 9ca4 89be c4b8 7abc ecba 4fbd
000003a0: 64a0 f1be 5577 86bc 40d2 3fbc 8510 5ebd
000003b0: 0031 613e 43b1 38be f041 8e3d b780 883c
000003c0: 155e 88bc 741a 483e 6275 cabe e1d0 c33d
000003d0: 5adc 0d3d abf5 82be 5823 f2bd abb7 2f3e
000003e0: 1dd6 9cbe 5f0c 85be f17e 343c d21e 46be
000003f0: 08bb babe 95ff 77bd 1afd a4be 467b 73bb
0.004216672 0.044234432 -0.07518376 -0.010284612 0.34619746 -0.020481119 -0.4044682 0.017746538
-0.26192105 0.2624177 -0.047127333 0.061342552 -0.12284776 0.23625374 -0.15950198 -0.7386433
0.016686382 -0.16163497 -0.6890123 -0.09411065 -0.21747439 -0.14108288 -0.17842722 -0.20654961
-0.14917141 -0.3067107 0.4604934 -0.3168914 -0.30708018 -0.20240358 0.08134391 -0.31032217
0.045231845 0.2452271 -0.16332483 -0.31207952 -0.3009038 0.18592502 -0.10843554 -0.61368084
0.21923698 -0.1013108 0.37292367 -0.15377815 -0.1626918 -0.27538702 -0.8105684 -0.047451664
-0.32468554 -0.0042737946 -0.21761777 -0.6416053 -0.28279692 -0.079576634 -0.373511 -0.10577134
-0.24292906 -0.5282168 -0.17556989 -0.63846385 -0.078329146 0.14946237 -0.39820924 0.041930262
0.2744202 -0.05604681 -0.40849018 -0.07875991 0.028433619 0.1485467 -0.23125069 -0.105997875
-0.036046077 -0.0845423 -0.10326067 0.19675061 -0.16239889 0.12442844 -0.055674087 0.08192549
0.016658125 0.048977006 0.098873734 -0.45377022 0.0026789734 -0.07530297 0.09076381 -0.20889786
-0.08295491 0.1568903 0.013187241 -0.17504232 0.061376944 -0.07597852 0.02180879 -0.09633914
-0.13465795 -0.19265498 -0.1401053 -0.11366806 -0.007929585 0.043120362 -0.051442653 -0.094436325
-0.04990406 0.14140397 0.09353721 -0.07654877 -0.11666701 -0.03717249 -0.1792954 0.0023455338
-0.09120544 -0.1389368 -0.14384341 0.13545188 0.017929533 -0.22916381 0.11532846 -0.10915572
-0.2111882 -0.1174497 -0.05891105 0.0075835516 -0.07275499 -0.07913625 -0.12828204 -0.10749513
-0.10353925 -0.22838399 0.114545725 0.019732492 -0.08416317 -0.052476127 -0.0062932973 -0.049084317
0.7406881 -0.10615654 -0.11249766 0.14306988 -0.008192224 -0.036271706 0.090388544 0.059470434
-0.1398079 -0.021897634 -0.13049127 0.0056204773 0.0326868 0.115166776 0.05197902 -0.09612527
-0.06961826 0.24984248 -0.025836073 0.1323892 0.0089605125 0.054738432 0.44717804 0.10172207
0.09686054 0.14736196 0.17268689 0.09821953 0.12202056 -0.33323565 0.08331861 -0.03556946
0.18197614 -0.2721718 0.22975461 0.05727798 -0.011889313 0.18974596 -0.060620304 0.09356567
0.0040786997 -0.20060612 -0.28281635 -0.09288409 0.11450081 0.55783916 -0.20375937 -0.16389987
-0.20160125 0.029699862 0.06550835 0.053644422 -0.019338569 -0.13037106 -0.058495607 0.029102566
0.06067432 0.05669409 0.16588512 -0.18962747 0.1260467 -0.0585865 -0.3518695 -0.11987331
-0.3165547 -0.085542336 -0.023057545 -0.009716577 -0.09609106 0.023345878 0.06980559 -0.25753245
0.12660466 -0.063700214 -0.2880393 -0.050309077 0.24486983 0.27995673 -0.09959836 0.20314395
0.015125551 -0.074869335 -0.3096467 -0.00824129 0.084343396 -0.14303982 -0.17206652 -0.24140239
-0.015075918 0.02475977 0.26981586 0.06215275 -0.14638133 -0.268834 -0.015302841 -0.050715372
-0.4719268 -0.016414324 -0.011707842 -0.054214973 0.21991348 -0.1803637 0.0694617 0.016662939
-0.016646424 0.19541341 -0.3954268 0.09561325 0.03463397 -0.25578055 -0.118231475 0.17159908
-0.30632105 -0.25986 0.011016593 -0.19347695 -0.3647082 -0.060546476 -0.3222435 -0.0037152334

advantage.0.bias f4 [64]
00000000: 156a a1bd b930 e43b 0982 52bd 5d1b 9d3d
00000010: d9a4 233d 8a69 13be 80c4 04be 0db1 493c
00000020: 4e53 653d e8eb 363d 3c57 1fbd c17b 4a3e
00000030: 191f ce3c 8f2c cfbd 3742 babd 1fd2 78bc
00000040: 2dd1 7dbd ecec a6bb 3b9b 80bd a5dd ac3d
00000050: b8d5 bc3d 0dbf 58bc 8dee 33bd 4549 b4bd
00000060: 7bda c2bd 3dcd 20be bfe6 863c 459e c0bd
00000070: 6a6f d3bc 093c 703d 88a9 f1bc a3f8 d8bd
00000080: ab3c 753d 3d5a 2d3e df2d 28bd 8251 cabd
00000090: 27d8 0fbe e72d ecbd a0d5 90bd be0d 4bbe
000000a0: 09fa 6bbc 4ea3 343e 894d cd3d 7941 debd
000000b0: d3d8 0b3d 02b6 fcbd ca52 fcbc 74ee 37bb
000000c0: 82c5 1dbd 88a2 c6bd 2b29 08be 6b7e 4a3b
000000d0: 1a3b 30be 3541 283d 9c1a a53d 4d11 1dbd
000000e0: dc56 87be 87f7 1fbe bf18 ca3c 81f1 fcbb
000000f0: b613 10be 1db4 8f3d f16a 623d 131f bdbd
-0.07881562 0.006963816 -0.051393542 0.07671235 0.039952133 -0.14395729 -0.12965584 0.012310279
0.05598765 0.04465857 -0.038901553 0.19773771 0.025161313 -0.10115921 -0.09094661 -0.0151868155
-0.061967064 -0.0050941613 -0.06279608 0.08440713 0.09220451 -0.013229144 -0.04392867 -0.088030376
-0.09514328 -0.15703292 0.01646745 -0.094051875 -0.025809962 0.058651004 -0.029499784 -0.10594299
0.05987231 0.16928954 -0.04105937 -0.09878828 -0.140473 -0.11532193 -0.07071996 -0.19829461
-0.014402875 0.17640421 0.10024554 -0.10852332 0.034142327 -0.12339403 -0.030801196 -0.0028065713
-0.038518436 -0.09698969 -0.13296954 0.0030898105 -0.17210045 0.04107781 0.08061716 -0.038346577
-0.26433456 -0.15621768 0.024670003 -0.007719219 -0.14070019 0.07016776 0.05527777 -0.092344426

advantage.2.weight f4 [4, 64]
00000000: a33d 58bf 8c84 a03d ec05 213c dcc3 90bd
00000010: b325 bf3d 2ff0 fabd ac50 f53d 02d3 ffbc
00000020: fc50 113e 32f9 c9bd 05ac ccbb 7b8a d53d
00000030: cd87 5e3d 25c1 a0be fe82 93bc ad18 203d
00000040: d244 24be d33e f93c 4835 ee3d 070b 183e
00000050: 0e4d 193c 7ca3 313f a200 703d e275 9fbe
00000060: ccf6 0dbe 3462 7cbd 6025 2cbe 623d 42be
00000070: b503 b43e a88f 563d b95f 7cbe 5eb6 59bc
00000080: e855 743d 74a2 7d3d 2cce 813e e68e 9338
00000090: 05a6 063e 7cc0 8ebe df27 08be 29a2 17be
000000a0: bd05 d03d 8f07 1abd ca81 0abc fe96 e33a
000000b0: 5098 073d 2931 17be 07e8 343e d2f5 733e
000000c0: 11cd d9bd 84f9 133e dab0 81bd de46 dd3e
000000d0: 01b4 bc3d be6e afbe bc81 123e 4227 4ebc
000000e0: 819c 37be 9a42 8b3e 558f 8d3d 8fbe 68bc
000000f0: fae4 55bd 3863 6f3d 04a8 28bd 010d 9a3d
00000100: e473 c03c b2fc 43bd 18a1 2f3d b71d 96bc
00000110: f918 6cbd c1ae 14be 66f2 b7bc dbc3 53be
00000120: 4796 a1bd 9c43 3a3e 6186 803d 0ceb ba3d
00000130: 18c5 3f3e 193d 7dbc e4ca 0fbc 3c6f a63c
00000140: 48bd aa3d a274 4d3d 0c79 73bd 9c0d f03d
00000150: 552d 563e e72b e73b e349 39be 5cda 9b3e
00000160: 6e19 813e 68ea afbd 33fd abbd ed4b ecbc
00000170: 7132 423e 223c 2c3e 8061 dc3d 7fe5 b33c
00000180: d176 f33d 88a2 05be 3a93 273d 03bf 8ebd
00000190: 395b a33e ec3f 5bbe 9876 74bd d90e a5bd
000001a0: 0051 ce3d e5b5 b53d d2ec a3be fd39 783e
000001b0: 6d90 debd d5bf 7ebc 9c91 bd3e 4c8a 2b3e
000001c0: 754d 98bc f8ee a33d b59c 01be 7cae 4b3e
000001d0: bd30 fdbe eee0 bc3d cf7c b23d 0433 b53c
000001e0: 3b07 92bd 4033 64be 1101 8fbc 3cf7 8abd
000001f0: 7675 72be dcb3 aa3c a1bd 01be bbc4 05be
00000200: 0640 123e 962a a3bd ae30 1fbe 4ef4 103e
00000210: 8b18 bb3e 2ad7 4e3e 47c0 8d3d 80b0 ca3d
00000220: 333d 583d 8b31 2ebe f691 12be 3857 223e
00000230: eab0 323f c1ee 26be 2dde 80bd 2123 5e3d
00000240: 3472 683e ab3c 11be 2346 0abe c302 2c3c
00000250: 2c7d 0cbf 471b 053f bf21 55be ad6d ecbd
00000260: 8501 613e e41e 83bd 4495 aabb 133f 22be
00000270: 4f2c 413e a909 4b3e 4437 33bd 658b 38be
00000280: 98d1 9abe 917b 1ebe f46b 47be aa97 b03d
00000290: 06ce cb3d 253b 9cbd 1954 4bbe 0b69 453e
000002a0: 3e36 223e e67f 203e 56a0 bbbc 3ff1 63be
000002b0: 62a6 2d3e e175 893d 2286 023f 3408 993a
000002c0: 3f35 9e3d cee7 413d bbd8 38be c6af da3e
000002d0: 2109 3cbe 949c 6b3e dcc7 953d 62ef 7f3e
000002e0: c916 dfbd 5d4c 51be 2d55 8bbe a4f5 da3d
000002f0: 3120 5dbd 9b75 f73d faec 89be ed50 47be
00000300: 4889 f23d 67cd f33c 2367 dc3e 568d c6be
00000310: ff01 30bd c2b7 e8bd 1a0b acbd 3e0c 473e
00000320: 9616 cc3d 3329 933e 6afc 8f3c ffae 6bbe
00000330: b554 1cbd a59a 3d3d e91a 483d 8a89 b5be
00000340: d192 e53e 6c30 42be 31e7 093f 3bd2 6c3e
00000350: a4c9 223e 95d9 3c3e 387c fa3d 1d24 d33e
00000360: 9061 c7be e158 02be 72f7 b3bd ba03 c43d
00000370: d09e cd3e 1369 82be 8833 a4be 63d2 f239
00000380: 4162 82be bd28 343e 32e0 97be 5713 b63c
00000390: 005d 0cbe aebc edbd d9c6 d5bd b234 8bbd
000003a0: c1c9 81be ab3b 523e c5b1 f33d 191c 84bd
000003b0: bd8e 033e 55ee 7abe 01c6 cf3d 9b92 05bd
000003c0: 2448 e6bd e198 1ebe 8717 613e a311 943e
000003d0: 9350 ae3e 23b8 18bd 7b72 0c3f 996c 753e
000003e0: a090 80bd cacb 5fbe d129 3fbd ea96 36be
000003f0: 709c 59be eb57 33be 1e59 6ebe 1561 84bc
-0.8446905 0.07837781 0.009828072 -0.07068607 0.093333624 -0.12252843 0.119782776 -0.031228546
0.1419105 -0.09861983 -0.0062460923 0.10426804 0.05432873 -0.31397358 -0.018006798 0.039086033
-0.16041878 0.030425465 0.11631256 0.14847957 0.00935675 0.6939008 0.058594353 -0.31144625
-0.13863677 -0.06161709 -0.16811132 -0.18968728 0.35159078 0.052383095 -0.2464589 -0.013288109
0.05965224 0.061922505 0.2535261 7.036123e-05 0.13149269 -0.2788123 -0.1329646 -0.14807953
0.101573445 -0.037604865 -0.008453796 0.0017363725 0.03310424 -0.14764847 0.17666636 0.23824242
-0.106348164 0.14450651 -0.0633256 0.4321813 0.092140205 -0.34264177 0.14307302 -0.012582602
-0.17930795 0.2719925 0.06912104 -0.014205589 -0.052220322 0.05844423 -0.041175857 0.075220115
0.023492761 -0.04784841 0.04287824 -0.018324716 -0.057641003 -0.14519788 -0.022454452 -0.20680182
-0.07889991 0.18189853 0.06275631 0.09126863 0.18727529 -0.015456461 -0.0087764 0.020316713
0.08336884 0.050160058 -0.05944161 0.11721346 0.2091573 0.007054794 -0.18094592 0.30440032
0.25214714 -0.08589631 -0.08397903 -0.028844798 0.18964554 0.16819814 0.10760784 0.021960018
0.11887897 -0.13050282 0.04091189 -0.06970026 0.31905535 -0.21411103 -0.059683412 -0.080594726
0.10074043 0.08872584 -0.32016617 0.24240871 -0.10867391 -0.015548666 0.37025154 0.16751975
-0.018591622 0.08004564 -0.12657435 0.1989078 -0.49451247 0.092225894 0.087152116 0.022119053
-0.07130285 -0.22285175 -0.017456563 -0.067854375 -0.2367762 0.020837717 -0.12669994 -0.13063328
0.14282236 -0.07967107 -0.15545914 0.14155695 0.36542162 0.20199266 0.069214396 0.09896946
0.05279274 -0.17011087 -0.14313492 0.15853584 0.698012 -0.16302015 -0.06292377 0.05423272
0.22699815 -0.14183299 -0.13503318 0.010498705 -0.548785 0.51994747 -0.20813654 -0.115443565
0.21973236 -0.06402376 -0.005205782 -0.15844373 0.18864559 0.19827904 -0.043753877 -0.18021925
-0.30238032 -0.15476824 -0.19474775 0.086226776 0.09951405 -0.076284684 -0.198563 0.19278352
0.15841004 0.1567379 -0.022903603 -0.22259997 0.16958001 0.06711937 0.5098592 0.0011675418
0.07725 0.047340207 -0.18051426 0.4271223 -0.18362857 0.23008949 0.07313511 0.24993661
-0.10893018 -0.20439287 -0.2721342 0.106913835 -0.05398578 0.12082978 -0.2693861 -0.19464464
0.118425906 0.02976103 0.43047437 -0.38779706 -0.042970654 -0.11363174 -0.08400555 0.19438264
0.099652454 0.2874237 0.017576415 -0.23015974 -0.03816672 0.04629006 0.04885379 -0.35456496
0.44838575 -0.18963784 0.53868395 0.23127072 0.15897232 0.18442376 0.12230724 0.4123849
-0.38941622 -0.12729217 -0.08787431 0.09571023 0.40160227 -0.2547079 -0.32070565 0.00046314587
-0.25465587 0.17593665 -0.29663235 0.022226019 -0.13707352 -0.116082534 -0.10438318 -0.0679716
-0.2534924 0.20530574 0.11899141 -0.06450672 0.12847419 -0.24504979 0.10145188 -0.032610517
-0.112442285 -0.15488006 0.21981631 0.28919706 0.34045848 -0.03728498 0.54862183 0.23967208
-0.06277585 -0.21855083 -0.04667074 -0.17831007 -0.21251082 -0.17514007 -0.23276183 -0.016159574

advantage.2.bias f4 [4]
00000000: 6ee3 5a3d f7fa 9cbd e2ff 27bd 2ed7 35bd
0.05343955 -0.07665055 -0.041015513 -0.044394664

value.0.weight f4 [64, 64]
00000000: a42a b9bd 146a a6be 0f2b 87be 50fc 88be
00000010: daf2 f4bd d239 3cbe ea03 f0bd b471 1a3d
00000020: eec8 f3bd c323 72be 3a59 c2bd f77f 583d
00000030: 5378 02be a5a7 683d bd2c b03e a3cb 0e3e
00000040: 7949 8cbe cedd 95bc 2e4c 8fbd 7e32 853c
00000050: b601 56be b9b7 debd 9ed1 fd3d e542 733e
00000060: 19e1 173e ac26 c1ba 8111 8fbd 9806 b53c
00000070: 9da6 263e 8779 edbd d409 87bd 651f 393e
00000080: 3207 b6be 4701 383e d130 ae3c d438 20bd
00000090: 522c 703e d8d7 d3bc c4f0 c4be 45da dc3d
000000a0: f7e6 b33d c929 89bd a877 9abd e96a 143e
000000b0: d2ad 21be d7eb fd3d 356e ebbd 79b0 92be
000000c0: 67ff cc3d 8597 28bd 2448 463e 5fdf 0dbe
000000d0: 93c7 91bd 7858 6a3d 3a6d f43c 9952 d23d
000000e0: 177f 243e b2c4 66be e75f c23b 0a53 033d
000000f0: 7846 ed3b 0a1a b7bb 5642 6ebe b5b6 abbc
00000100: a610 813d 8c47 c5bd f63f c5be 7969 71bd
00000110: 5928 273e fc29 853c 1d23 1dbe 2dc4 56bd
00000120: 48cf 94be 369d 44be 65a6 4bbd 2b69 d23d
00000130: db25 113e 919c 8f3d 820b e03d 959f 5cbd
00000140: f91d 373e d26c bb3d e4b3 21bc d5a9 7ebd
00000150: b82f 2bbd 31eb 173e 3375 363c 6269 b93e
00000160: 5f0b edbb 948a 653e a794 a13d 7a47 91be
00000170: a697 603d d417 963d c7dc 1bbe f53a 20be
00000180: 4b69 1bbb fb3a 86bd 97b6 62be 3ceb 113e
00000190: 04e0 b5bd 9ffd 543e 85ab 07be fe80 68bd
000001a0: 2883 4fbd c034 4f3d e8df 20bd ad41 1abe
000001b0: 486e 97bd f538 32bc bfce ef3d 9ea9 09bc
000001c0: e6d0 e13d 888c cfbc 3efc d3bd 609d cb3d
000001d0: fe85 efbd 78c2 bb3e 5d49 dbbd 85d2 1ebe
000001e0: 9fb5 e03d 932d 19bc e3f0 94be d82f 09be
000001f0: eb83 8d3d fac6 e9bd f35c 6d3c 2ab7 2f3e
00000200: 7337 5d3d 4de7 c3bd a12e ebbd 3b46 a73c
00000210: 186c 0cbe 1abd 933c 700e 293c f06f db3d
00000220: aecb c7bb f11c 9e3d 67d9 24bc 2ddb d63d
00000230: addd 10be 13eb 5fbd c7af 09be bd88 4e3e
00000240: 9b3d 84be a260 c53d 124e 80bd 8293 0e3d
00000250: a775 86be 8da9 c4bd af9c 47be e1c7 5cbd
00000260: eb85 4fbe f7a3 9e3b b35d ed3d 5547 05bd
00000270: b2f6 833c 320d 893d ec3e 453c d08e e0bd
00000280: 2ccd 98be 5584 003d 7e7d 393c 6ce1 473b
00000290: 6d1a 84be bb3b f23b e72a 033e 7f49 19be
000002a0: 4b2a 983d ea61 9c3d 7d47 54bd 2308 063d
000002b0: 4c4f 683d eddc ccbe f3d9 72be 610b e83d
000002c0: 0a3d 8ebe ce1e c7be bb51 46be e74f 053d
000002d0: b960 fd3c 8e25 0c3d 07b2 1abe b548 aebe
000002e0: 1827 163d 69ef c93e 9cd4 433c 13c8 d13a
000002f0: c54c 1f3e fea9 5fbe f0a8 b1be 98ef bebc
00000300: 7b8a 38bd beec 333d 820c 2f3e 07cb 01bd
00000310: 48bf a8bb 4b22 8fbd 8ca3 863d 72f9 14be
00000320: 3271 363e c7fd 5dbe 3a45 d1bb eb79 f63c
00000330: 4d99 003b 252d 24bd 511a 7e3d 9c95 bc3a
00000340: 11e4 be3c a531 2cbe 841b 6bbc 03e9 9fbd
00000350: baac 2b3d 8e2c 02be ae03 07be 4b65 78be
00000360: f84c f0bd 9fb5 843e 2e3f 313e 0c51 743e
00000370: d086 b2bd 5931 9d3d 0ae2 213e d728 a2bc
00000380: 8902 55be efa3 c03d 92eb 0f3e 09cb 03bd
00000390: f8c7 89bc d723 363e 60c7 ae3d b5c0 60be
000003a0: dda2 523d 1809 e43a 0129 e73c e490 a23c
000003b0: 4569 203e f967 1f3d 4fab 26be af6d c4be
000003c0: ba7f 803d 6202 913e 4e4f 893c 7ca3 5cbd
000003d0: 0f28 693e e066 a93e 6a85 8cbd 2e92 5bbd
000003e0: 7b43 44be bc00 a5bd 1df8 8dbe 092f f3bd
000003f0: 41bd 0abe 7ac8 143e 6e32 43be e728 abbe
-0.09041336 -0.32502806 -0.2640004 -0.26755 -0.11960383 -0.18381432 -0.117194965 0.037706092
-0.11903559 -0.23646455 -0.09489675 0.05285641 -0.12741213 0.056800503 0.34409133 0.13944869
-0.27399805 -0.018294241 -0.06996952 0.016259428 -0.2089909 -0.10874886 0.12393497 0.23755987
0.14831962 -0.0014736257 -0.069857605 0.02209787 0.16274495 -0.11595445 -0.065936714 0.18078382
-0.35552365 0.17969237 0.021263512 -0.039116696 0.23454407 -0.025859758 -0.3846494 0.10783819
0.087842874 -0.06697423 -0.07542354 0.14493908 -0.15788963 0.123984985 -0.1149563 -0.28650263
0.10009652 -0.041160125 0.19363457 -0.1385474 -0.07118144 0.057213277 0.02983724 0.102696605
0.16064106 -0.22535971 0.0059318426 0.032061614 0.0072410665 -0.005587821 -0.23267493 -0.020961145
0.063020036 -0.09632787 -0.3852536 -0.058938477 0.16323985 0.016255371 -0.15345426 -0.05243318
-0.29064393 -0.19200596 -0.049719233 0.102739654 0.14174597 0.070122845 0.10939695 -0.053863127
0.17882527 0.09151615 -0.009869549 -0.062173683 -0.041793555 0.14835812 0.011136341 0.36213213
-0.0072340216 0.22416145 0.07889681 -0.28374845 0.054832123 0.073287636 -0.15220939 -0.1564749
-0.0023713883 -0.065542184 -0.22139965 0.14249891 -0.08880618 0.20799874 -0.13249023 -0.05676364
-0.05066219 0.050587416 -0.039276034 -0.15064116 -0.07394081 -0.010877837 0.117093556 -0.008402256
0.11026172 -0.025335565 -0.10350846 0.09942126 -0.11695479 0.36671805 -0.10707352 -0.15509994
0.109721415 -0.009349245 -0.29090032 -0.13397157 0.06909927 -0.11414905 0.014487493 0.17159715
0.05400796 -0.095656015 -0.11483503 0.02041923 -0.1371311 0.018034507 0.010318384 0.1071471
-0.0060972786 0.07720364 -0.010061598 0.10491023 -0.14147063 -0.054667544 -0.1344596 0.20169349
-0.2582825 0.09637572 -0.06264891 0.034808643 -0.26261637 -0.09602652 -0.19493364 -0.053901557
-0.2026593 0.0048413235 0.11590137 -0.03253873 0.016108844 0.0669197 0.0120389275 -0.10964739
-0.29844034 0.0313762 0.011321424 0.0030499352 -0.2580141 0.0073923743 0.12809335 -0.14969443
0.07429942 0.07635863 -0.05182599 0.032722604 0.05671625 -0.40012303 -0.23715954 0.11330295
-0.27780944 -0.3889069 -0.19367115 0.032546904 0.03092991 0.034215502 -0.15106975 -0.34039846
0.036658376 0.39440468 0.0119525455 0.0016005061 0.15556629 -0.2184219 -0.34699202 -0.023307607
-0.04505394 0.043926947 0.17094615 -0.031687763 -0.0051497556 -0.06988963 0.06574163 -0.14548281
0.17816618 -0.2167884 -0.0063864263 0.030087432 0.0019622624 -0.040082116 0.062036816 0.0014387849
0.02330211 -0.16815813 -0.014349822 -0.07808115 0.04191277 -0.12712309 -0.13184997 -0.2425739
-0.117334306 0.25919816 0.17309257 0.23859042 -0.0871712 0.07675428 0.15808883 -0.019794865
-0.20801748 0.09406268 0.14054707 -0.03217605 -0.016818985 0.1778711 0.085341215 -0.21948512
0.05142485 0.001739773 0.028217794 0.01984448 0.15665157 0.038917515 -0.16276287 -0.38364932
0.06274362 0.2832213 0.016761448 -0.05386685 0.22769187 0.330863 -0.06861384 -0.053606205
-0.19166367 -0.08056781 -0.27728358 -0.118742056 -0.13548757 0.145296 -0.19062206 -0.33429644

value.0.bias f4 [64]
00000000: fabf 28bd eea7 b13d 6763 3dbe 9279 813e
00000010: 7cf4 63be 6fd8 703c ef8c a2bd 0840 0d3f
00000020: dfb7 2fbe 2537 813e feb0 9538 8ca5 35bd
00000030: 6ff0 31be 68d7 553d 337c be3d 7d22 e2bd
00000040: 9da2 813e a179 13be dc90 833e 1453 a1bc
00000050: 0b84 53bd 6743 41bd 3233 6abe ef70 57be
00000060: 06b9 633d 90ee eeba 51bd 833c 9fc5 8d3e
00000070: c72f 1d3d afa9 a63e 5d8c fd3e a419 14be
00000080: c48b cbbc ff58 823e fea1 23be ac69 e43e
00000090: e5bf 36bc 39a6 6b3e 39f5 07bd 0f20 783e
000000a0: 2239 b8bd f7f6 463e fd3c a33e 7f1f 8fbc
000000b0: 395c 743d 2502 263e 29eb f0bc b6f9 8e3e
000000c0: 1deb d33d f615 1bbd 4f22 0c3e 8470 c3bd
000000d0: 07b1 ab3e a11d 34bd f837 f53e 58da e43e
000000e0: ce39 203e e235 9e3e e749 a93e 3bf2 a83e
000000f0: c9bd c9bd bdd8 1d3d e981 b53d 0fe7 ac3c
-0.041198708 0.08674608 -0.1849495 0.25288063 -0.22261232 0.014700039 -0.07937037 0.5517583
-0.17159985 0.25237384 7.137841e-05 -0.04434733 -0.17376874 0.05220738 0.09301033 -0.11041734
0.25319377 -0.14401866 0.25696456 -0.019692935 -0.051639598 -0.04718342 -0.22871092 -0.21039174
0.055596374 -0.0018229056 0.016081484 0.27689835 0.038375642 0.32551333 0.4952115 -0.14462906
-0.024846919 0.25458524 -0.15979764 0.4461187 -0.01115415 0.23012628 -0.033192847 0.2423098
-0.08995272 0.19430147 0.31882468 -0.017471073 0.059658263 0.16211756 -0.029409008 0.2792489
0.10347579 -0.03786274 0.13684963 -0.09542945 0.335335 -0.04397357 0.47894263 0.44697833
0.1564705 0.30900484 0.33064196 0.32997307 -0.09850652 0.038536776 0.08862669 0.021106271

value.2.weight f4 [1, 64]
00000000: 5ff7 b23d 67c1 e83d 5d38 6c3e ebf4 043e
00000010: 5df7 86be 36ab 50be f398 70be cccd 803e
00000020: 1da4 52be 90ab 3d3e 6841 363e 47bd c03d
00000030: 69ea c53a 7742 12bf 6e0e ca3d cdcd c3be
00000040: 9e75 4a3e d873 48be d845 e13d 6d55 e03e
00000050: 8f9d 5bbe 6c80 d0be 2bfb 41be 75e8 12be
00000060: 5e53 373e a4c0 033f c238 a0be 4cf4 0c3e
00000070: 3d69 183c 7fbd 193e 562c 3d3e b990 74be
00000080: 8f4f b6be c5f8 b53d 5440 a7be 8d81 243e
00000090: 5239 42bf 7574 ac3d 6787 983e a641 b33d
000000a0: 5107 03be 8343 9e3d 3392 2e3e 312b acbe
000000b0: 8704 fcbe 6c85 753d 26b1 953e 3b76 e33d
000000c0: eaaa 9d3e 4a66 fc3d f550 853e f3fa 8dbe
000000d0: 8262 f73d a4ab ab3e 138e 3a3e 1ae2 273e
000000e0: 8414 383d 53f9 983e 1fe7 d93d 6940 3d3e
000000f0: eedd 8b3e b07b 953e bbb3 653e 771f 9b3d
0.087385885 0.113650136 0.23068376 0.12984054 -0.26360598 -0.20377812 -0.23495845 0.2515701
-0.20570417 0.18522477 0.17798388 0.09411102 0.0015099767 -0.5713267 0.098660335 -0.3824295
0.1977143 -0.19575441 0.1099965 0.43815175 -0.21446823 -0.40722978 -0.18943469 -0.14346488
0.17902896 0.5146582 -0.31293303 0.13765067 0.0093024345 0.15013693 0.18473944 -0.23883332
-0.35607573 0.0888534 -0.32666266 0.16065045 -0.75868714 0.0842065 0.29790804 0.08752756
-0.1279576 0.077277206 0.17047958 -0.33626702 -0.49222204 0.059941694 0.29236716 0.11106535
0.3079446 0.123241976 0.26038328 -0.27730522 0.12079336 0.3352939 0.1821826 0.16394845
0.04494144 0.2987772 0.10639786 0.18481602 0.27317756 0.2919593 0.22431843 0.07574361
